backdoor_model_training/MNIST/save_modelglobal_model.pth (torch, 126327 bytes, 8 tensors)

conv.0.weight f4 [16, 3, 5, 5]
00000000: dc56 2b3d 1be3 40be a2f5 39be aa1d 57bd
00000010: 6e06 4abe 668e f33c c0ed 8fbd 1e93 68be
00000020: 00c1 253b ce23 cabc c024 a53e 78f5 773e
00000030: 7ff9 973e 9201 5e3e 8f47 083e cbe5 e0bc
00000040: ad00 723e 9d64 17bc cca9 b23d 9f89 c03d
00000050: c05a f4bd 6f2c 2dbd 7cc6 e8bd 365c f1bd
00000060: 0f58 8d3d acaa 90bd 55a0 6ebe 46ab 79be
00000070: 0fd0 44be fae9 98bd 6cfc 8dbd b138 54bd
00000080: 926d e2bc 141d 84bd 3fcd a53d d7b0 623e
00000090: 3014 9f3e 8b9b 473e feba bd3d 730e 343e
000000a0: 99c5 343c 3251 273e 0894 1a3e 960e 48bd
000000b0: accf dbbd 0654 5dbd 4d01 83be 0059 2dbe
000000c0: 95cb 23bb c865 5ebd 3ed7 153d 7d88 24be
000000d0: 6e9a 12be 38aa 3abe 0a3d aebd 620e c3bd
000000e0: 5ae6 44be e997 52be 904b 85bb 3662 9fbb
000000f0: b9f4 aa3e 3635 773e fa38 9e3e b5da c43d
00000100: 00f7 ef3d 55da 7e3d bcfe 763e da4a fd3d
00000110: fb54 303d e104 9cbd 59cb 5dbe c8de 36be
00000120: 7e59 c1bc 0181 ebbd 4e3f 83bd de5f c1bd
00000130: a962 383e 5d3a 193e a21b 99bd 96cc c7bc
00000140: 029a 653d 4a86 b83d a92f b4bd dc31 01be
00000150: 08a1 19bd 0cd2 19bd 1e10 913c 4201 a1bd
00000160: 2246 f5bd 4c7f 6abc 7eef 9bbd ade0 7d3c
00000170: ea48 e43d a390 10bd 31a0 8fbc 9e32 56bd
00000180: aaf5 03be ccdc b7bd 13e7 073e 42ea 933d
00000190: 27a4 56bd 5bd8 393e 70e9 8ebd c3f0 bf3d
000001a0: cbab 0dbe da65 b4bb 7505 083e e4b9 2cbd
000001b0: 57db b5bd d678 cbbd 7d24 b13d cb92 c83d
000001c0: 9fd8 933c 9427 ad3d a970 cdbd a19f fbbd
000001d0: 3cc2 cfbd e54a c03b b0bb 583d c969 9f3c
000001e0: 7fb8 94bc c15f babd 9454 fdbb f61c a03d
000001f0: 5e64 ba3d 8b99 91bd 1e42 193e 3204 153d
00000200: 6ce2 0d3d c21a 9c3d ade1 fc3d 3de4 eb3d
00000210: c51b 66bd 7ec4 0abe 4404 a43c cfe1 143e
00000220: 35a0 893d d745 26bc 7d71 893d 07b7 49bd
00000230: ab81 97bd 1cf2 a8bd 4d3a 34bd eb01 e63c
00000240: 3659 c1bd 907f 4c3d 4fe1 06be 08a7 05bd
00000250: 6494 eb3d 61b4 533d 5bc6 7cbd e21d 8dbd
00000260: ae5c 383e c010 8a3e 9b5e 933d e10a b2bd
00000270: db97 8ebd 4ede 88bd 1964 3a3e 8060 133e
00000280: 047c f6bd eb27 28be 80d9 dfbc cfa5 3f3d
00000290: 42eb 063e 5a03 81bd 428e 82bc 4c79 0abe
000002a0: 7066 a6bd 8a2f be3e 0acd fdbd 9a10 1bbe
000002b0: 570a 733b 6a2a d4bc 3bbd e23e 3477 1a3d
000002c0: b136 073e 1761 083e a241 883e f7e4 7d3c
000002d0: 9cce e8bd 040f 47bd a26f dfbb 1ed6 5d3e
000002e0: dc45 a43d 3de4 aabd 7618 27be 6f4c 35be
000002f0: 5ee3 d33d e17c 023d e600 ac3c 35ff 323c
00000300: 5aae 3abe 9b08 0ebd 8bed 3dbd 520c b53d
00000310: 9332 d3bd e766 e13c 78b4 873d 3464 133c
00000320: c45c 46bd bd89 f43d 667d bf3d 00d1 133e
00000330: 2a16 ac3d 1ab8 18be 5529 42bd 2dc7 a23d
00000340: 379c cf3d 6ff2 ac3d b133 2cbe 01eb fdbd
00000350: 425f f6bc 511c 623d 7090 a73b 691e 78bd
00000360: 719d 38be 2eef aa3c bd77 723d 0205 103d
00000370: 6d21 f0bd c871 8b3d 4eeb 45be df8b f7bc
00000380: 26be 8fbd 1e75 32be 8ce4 3dbe 7414 55be
00000390: f071 cfbd 252c e23d 2cd8 37be f6a7 a2be
000003a0: f795 04be 4a6b de3c 8505 3c3e 5aa5 62be
000003b0: 1750 7fbe f344 f6bc 4ebb a23e 7ace 763e
000003c0: 5cf5 cabc 8d9b f23c ee5a a93e 122b ff3e
000003d0: 7956 933e bc31 cf3b d1df c43d a154 7c3e
000003e0: 0a75 2c3e 5204 143e 5780 b7bc 3742 66be
000003f0: 00c7 b6be d60e 27be 4b15 473d 89c8 56be
0.041830882 -0.18836634 -0.18160108 -0.052518524 -0.19729015 0.029730987 -0.07027769 -0.22712371
0.002529204 -0.024675276 0.322546 0.24214733 0.29682538 0.21680287 0.13308547 -0.027453324
0.2363307 -0.009240297 0.087237924 0.09401249 -0.11931372 -0.042278703 -0.11365983 -0.11785166
0.069015615 -0.07063803 -0.2330335 -0.24381742 -0.19219993 -0.074665025 -0.06932911 -0.051811878
-0.027640138 -0.06450859 0.08095788 0.22137772 0.3107009 0.19492929 0.092641816 0.17583637
0.011033439 0.16339567 0.15095532 -0.048842035 -0.1073297 -0.05403521 -0.2558693 -0.16928482
-0.002499317 -0.054296285 0.036582224 -0.16067691 -0.14316723 -0.18228996 -0.08507736 -0.09524228
-0.19228497 -0.20565762 -0.0040678456 -0.0048640026 0.33389834 0.24141392 0.30902845 0.096120276
0.117170334 0.062219936 0.24120611 0.123677924 0.043049794 -0.07618118 -0.21659602 -0.17858422
-0.023602244 -0.11499215 -0.06408559 -0.09442113 0.18006386 0.1496367 -0.07475974 -0.024389546
0.056055076 0.090099886 -0.08798153 -0.12616676 -0.037507087 -0.037553832 0.01770788 -0.07861568
-0.119762674 -0.0143125765 -0.07614039 0.015495461 0.1114672 -0.035294186 -0.01753244 -0.052294366
-0.12886682 -0.089776605 0.13271742 0.072224155 -0.05240264 0.1814894 -0.069781184 0.093720935
-0.13835065 -0.0055053057 0.13283332 -0.042169467 -0.088797264 -0.09935157 0.08649538 0.097936235
0.018047629 0.084548146 -0.10031254 -0.12286306 -0.10144469 0.005868303 0.052913368 0.019459622
-0.01815438 -0.09100295 -0.0077310298 0.07818024 0.09101175 -0.07109364 0.14966628 0.036380954
0.03463976 0.07622291 0.12347732 0.11518142 -0.056178827 -0.13551518 0.020021565 0.14539264
0.0672001 -0.010148487 0.06711099 -0.049246814 -0.07397779 -0.08249304 -0.044000912 0.028077086
-0.09440844 0.04992634 -0.13171886 -0.032629997 0.11502913 0.051685695 -0.061712604 -0.06890465
0.18004104 0.26965904 0.07195779 -0.08693481 -0.06962558 -0.06683026 0.18202247 0.1439228
-0.12035373 -0.16421477 -0.027325392 0.046788987 0.13175681 -0.062994674 -0.015936974 -0.13522834
-0.08125007 0.37145644 -0.12392624 -0.15143052 0.003708502 -0.02589913 0.44284996 0.037711337
0.13204457 0.13318287 0.26612574 0.015496484 -0.113675326 -0.048598304 -0.0068187276 0.2166371
0.08021137 -0.08344314 -0.16317925 -0.17704938 0.10346101 0.031857375 0.020996522 0.010925104
-0.18230572 -0.034676176 -0.046369117 0.088402405 -0.10312381 0.027514888 0.066262186 0.008996058
-0.048428312 0.11940334 0.0935009 0.14435196 0.08402665 -0.14913979 -0.0474027 0.07948146
0.101372175 0.08444678 -0.16816594 -0.12398339 -0.03007472 0.055202786 0.005113654 -0.060575876
-0.18028809 0.020866003 0.059196223 0.035161026 -0.117251255 0.068088114 -0.19328043 -0.030218063
-0.0701869 -0.17427489 -0.18544215 -0.20808583 -0.10129154 0.11043576 -0.17953557 -0.3176877
-0.12947832 0.027150769 0.1836148 -0.22133389 -0.24932896 -0.030062174 0.31783527 0.24102202
-0.0247752 0.029615188 0.33077186 0.49837548 0.2877691 0.0063230675 0.09613002 0.24641658
0.16841522 0.14454773 -0.022400064 -0.22486196 -0.356987 -0.16314253 0.04860429 -0.20974936

conv.0.bias f4 [16]
00000000: dcf0 7c3a 3838 593c 356b 373b 8261 50bc
00000010: 0340 1a3e 4263 29be 100f 51b9 e129 fcb8
00000020: f02f 72bc 3d1d 34be 74b1 2bbb e153 013c
00000030: 3a4a 873a e65c 30bd b4b6 c138 1e5a dcba
0.0009648928 0.0132580325 0.0027987484 -0.01271856 0.15063481 -0.1654177 -0.00019937404 -0.00012024097
-0.014781937 -0.17589279 -0.00261983 0.007893533 0.0010321804 -0.043057345 9.236988e-05 -0.0016811525

conv.3.weight f4 [32, 16, 5, 5]
00000000: 3abe 05bd a4f3 d7bc f581 eb3c 5394 3e3d
00000010: e635 543c 0533 debb b53c 123c e2de 4b3d
00000020: 8885 9c3d 029b f8bc b58b 0e3d 96cb 4c3d
00000030: 9bed 183d 2569 58bd 717c 843c 72c8 583d
00000040: b257 09bd 1666 77bd 2e72 3bbd e995 6cbd
00000050: b7a0 10bc 8038 58bd 448a 3c3d bade febb
00000060: 3d1b 803c 3a46 40bc c3cb 98bc 4bac 653c
00000070: baac 523c 53a6 1abd 1f1c 2f3d 757c ebbc
00000080: 8322 47bd 9cb8 c53c 7c6c b5bc 1e01 30bd
00000090: 5d87 b8bb 4b4d a73c 5910 4bbc 403b b0ba
000000a0: e82b 79ba daa4 c83b 2346 dd3c 5615 bdbc
000000b0: 8019 423d a01a cdbc 89af 1ebd 8ba4 0abd
000000c0: 1d40 a63c a84c 143d 2fcc 9c3c 8f6e a43c
000000d0: 2dd0 70bd a655 183d 7451 be3c 611c d73c
000000e0: 8261 91bc dbfe 01bc cf8a 3d3c a43b 0fbc
000000f0: 70b7 1abd b415 db3c a9ce c13c 9e95 d03d
00000100: 669d 81bd 8050 4cbc eec5 05bd 26cb 113d
00000110: 5b63 693b 6db9 a5bc 99ca 37bb 3949 0dbc
00000120: 7487 13bd 15a1 873c 1923 bbbd 4a01 b5bd
00000130: fd8b 713d 7a73 913c b6bc 143c ecec 6bbd
00000140: e30a 2b3d 1411 6a3c d239 9cba c0ae c6bc
00000150: 4235 85bd f733 0a3d 6a57 95bd 9d44 b8bd
00000160: 2b96 08bd f914 b2bb 685a b2bd a948 d7bd
00000170: a6a2 af3c ac5d 893d d59d b5bd cb37 e7bd
00000180: c3dc 3abd 0dea 033e 3f64 083e 61df 2cbe
00000190: c5c9 3fbd 85d4 5bbc 1c42 58bd 5a91 21bd
000001a0: 34bc 12bb 8353 423d ccad 7d3d b7c0 1cbd
000001b0: 6089 fabc d48d 0fbd a220 efbc 4b34 603b
000001c0: 553d e63a ddf8 3fbd 1c1a 95bd 2451 373d
000001d0: 12c0 c83a 599b 7ebd 718d 0abd 0ef5 0ebd
000001e0: bd19 98bc 9d06 a63c 6e0f 343c 5859 c8bc
000001f0: 52fe a9bb 623d 8bbc 91ca 9ebb e2fe 7abc
00000200: 94d7 63bd f493 cf3c ac87 50bd fdd4 62bd
00000210: a368 73bb a7af 6b3d d043 383d 4a3c 193c
00000220: e41a 9ebc c30c 31bd 76fb 6a3d 0a35 753d
00000230: 658a 26bd 5f60 bdbd bc34 7ebd 2b96 6d3d
00000240: e6a9 5f3d 422a abbd 3405 c1bd a28c 013d
00000250: 5b61 703d c86e 81bd 24ef 09bd 9e53 ad3c
00000260: 8865 6dbd b6c1 8bbd 05e4 a5bd 9f8a 31bd
00000270: 6bf9 4dbd 26a6 c73c 000a 01ba 1abd 833b
00000280: b27c cebc 62f8 d1bc dda1 603d 8a6d 1d3c
00000290: f894 fa3b d67c 49bb 1f87 773d d592 9bbc
000002a0: 3149 84bc b216 cabd 58a3 0d3d 338e fdbc
000002b0: 508a a0bc 708a e5bd be6b 91bd be7c 5d3c
000002c0: 6530 33bd b789 1bbd f02b 24bd 304c 33bd
000002d0: cf1d 8cbd 822c 503d da98 9f3d 2881 883c
000002e0: 8524 263d 40d1 5a3c d36a fc3c 16c9 6abd
000002f0: e651 1cbd 7aa4 d23b 2568 a63b af41 08bd
00000300: df69 9bbd 18c3 913d 98f2 51bd a27c a3bc
00000310: 0f04 1b3c 28f1 18bd 903a cb3d c4f5 58bd
00000320: b3b0 42bc 86b3 85bd b717 0d3d 5d85 f9bc
00000330: 6c08 853d dd7e 163d 56f9 03bd 15c4 d4bc
00000340: 7166 edbd 3c0b fa3d 0f48 13bd 44a0 cabc
00000350: 9240 b4bd 1cdd 483a f638 383e 57ad 943c
00000360: 4a05 45bd e409 25be f6bb 923d 7b84 943e
00000370: a21d 85bd 3fb4 65bd 9dd5 8dbd b2e9 ef3d
00000380: 1cbd 313e 8db9 69bd c148 86bd 882a babd
00000390: 9b9b b2bd f2f4 2aba c9e4 1ebc e61f ce3c
000003a0: 9c03 9bbd 89cc 8e3d a825 f03d 5a83 70bc
000003b0: 4e94 b7bd f34a 83bd 35b4 2d3c 063b 503e
000003c0: f6a4 61bd d7df 14be 15b1 dabd 1577 4f3e
000003d0: ace8 493d e30f d6bd 930c 43be 9631 363d
000003e0: 73f5 273e 10d0 90bd a613 77ba 11e3 773d
000003f0: c381 4dbd 84b6 13bd 6205 463d 46f9 923d
-0.032652117 -0.026361294 0.028748492 0.04652817 0.0129523035 -0.0067809843 0.0089256065 0.049773104
0.076426566 -0.030347351 0.034801204 0.049998842 0.037335973 -0.05283465 0.01617262 0.052925535
-0.0335309 -0.06040009 -0.045763187 -0.057760153 -0.00882738 -0.052788258 0.046030298 -0.007778016
0.015637988 -0.011735493 -0.018651849 0.014018129 0.012858564 -0.037756275 0.042751428 -0.02874587
-0.048616897 0.02413588 -0.022146456 -0.042969815 -0.005631371 0.020422598 -0.012394034 -0.0013445392
-0.0009505139 0.0061231675 0.027010983 -0.023081463 0.0473876 -0.02503711 -0.038741622 -0.033848327
0.020294243 0.036205918 0.019140331 0.02007225 -0.058792282 0.037191056 0.0232322 0.02625865
-0.01774669 -0.007934297 0.011568739 -0.008742247 -0.037772596 0.026743747 0.023658114 0.10184787
-0.063288495 -0.012470365 -0.032659464 0.035594128 0.00356122 -0.02023002 -0.0028044342 -0.008623415
-0.03601785 0.016556302 -0.09137554 -0.088381365 0.058971394 0.017755259 0.009078195 -0.057598993
0.04175843 0.014286298 -0.0011919087 -0.02425325 -0.06504299 0.033740964 -0.072920635 -0.08997462
-0.033346336 -0.005434629 -0.0870865 -0.10511906 0.021439862 0.067073196 -0.08867995 -0.112899385
-0.04562069 0.12882252 0.13319491 -0.16882087 -0.04682328 -0.013417368 -0.05279742 -0.03944526
-0.002239001 0.047442924 0.061933324 -0.038269725 -0.030583084 -0.035047367 -0.029190365 0.0034210857
0.0017565886 -0.046868194 -0.072803706 0.044755116 0.001531603 -0.06215987 -0.033826295 -0.03490167
-0.01856696 0.020266825 0.010990007 -0.024456665 -0.005187788 -0.016997043 -0.004845925 -0.015319558
-0.055625513 0.025339104 -0.050910637 -0.055378903 -0.0037141226 0.057540562 0.044986546 0.009352753
-0.019299932 -0.04322506 0.057368718 0.059865035 -0.040659327 -0.09246897 -0.06206201 0.05800454
0.054605387 -0.083576694 -0.094248205 0.03162826 0.058686595 -0.06319958 -0.033675328 0.021158036
-0.057958156 -0.06824057 -0.08100132 -0.04334509 -0.05028669 0.024371218 -0.00049224496 0.0040203454
-0.025205944 -0.025631133 0.054841865 0.009608636 0.007647153 -0.0030744574 0.060431596 -0.018990913
-0.016148182 -0.0986761 0.034579605 -0.030951595 -0.019597203 -0.112080455 -0.07100628 0.01351851
-0.043747324 -0.037973132 -0.040080965 -0.04377383 -0.06841623 0.050823696 0.07792826 0.016663149
0.04056217 0.013355553 0.030812657 -0.057320677 -0.038164042 0.0064282985 0.005078333 -0.033265766
-0.07588553 0.07117289 -0.051256746 -0.01995689 0.009461417 -0.03733936 0.09923279 -0.052968755
-0.011882949 -0.06528382 0.034446444 -0.0304591 0.06495747 0.03674208 -0.032220207 -0.025972405
-0.11591805 0.12209174 -0.035957392 -0.024734624 -0.08801378 0.00076623424 0.17990479 0.018149061
-0.048100747 -0.16117054 0.07164757 0.29007325 -0.06499793 -0.0560801 -0.06925509 0.11714496
0.17357296 -0.05706172 -0.065568455 -0.090901434 -0.08721086 -0.0006521485 -0.009698101 0.025161695
-0.07569048 0.06972606 0.11725932 -0.014679754 -0.08963834 -0.0641078 0.010602047 0.20335016
-0.05508896 -0.14538513 -0.10678307 0.2026027 0.04929416 -0.10452249 -0.19047765 0.044480883
0.16402225 -0.07070935 -0.000942523 0.06051928 -0.05017258 -0.036062732 0.048344977 0.071764514

conv.3.bias f4 [32]
00000000: 0777 82bd 9423 38bd 718d db3b 4d7e cabd
00000010: 2166 9b3c 3d1c 4abd f956 86bd 55f0 27bb
00000020: 445b 77bc 7a47 15bd c6f2 29b8 f7a0 3abd
00000030: bae8 f23c 038b 7c3b 7cdf 9e3c 87e7 b4bc
00000040: 4ee2 ab3c 26de b33b c76f 62bd 5ee9 0a3d
00000050: 303b eabc b82d 65bd 0b2a 6abd 52ab 523d
00000060: 1387 2b3d 6e9a b3bc e622 533d 52c7 a0bd
00000070: ec72 3dbd 7978 4dbc 9177 99bd 9040 c23a
-0.06370359 -0.044955805 0.0067002107 -0.09887371 0.018969597 -0.049343336 -0.065595575 -0.0025625427
-0.015097443 -0.03644512 -4.051884e-05 -0.045563664 0.029651988 0.0038535006 0.019393675 -0.022083057
0.020981934 0.0054891286 -0.05528238 0.033913963 -0.028592676 -0.055951804 -0.057169 0.051432915
0.041876864 -0.021924224 0.051546954 -0.07850517 -0.046252176 -0.01254093 -0.074935086 0.0014820267

linear.0.weight f4 [32, 512]
00000000: 08c2 bc3d 3bae 813d ffe3 2bbd 27ab 49bd
00000010: bde2 ea3c 0af7 78bc 77d1 ae3b 30d3 50bd
00000020: b963 15bd 9001 633d d3b6 07bd df4a 2bbd
00000030: 88fa b3bb 6479 d33b 160a e8bc acf4 5a3c
00000040: 8f4d 83bd b81d 39bd ecf3 ac3d 6756 0b3d
00000050: 6be9 f6bd 5317 053c 35e9 39bd 087c 10bd
00000060: 7493 b4bd 6a35 a23d d0e6 303d a8da 633c
00000070: 999a a0bc 2890 213c d1dd cc3b f094 36bd
00000080: 17f3 babd 260b ef3d 2457 8b3d 30c2 cc3d
00000090: a1a9 273d 47e3 b3bd 37fe 233d 83ae 48bc
000000a0: aa66 d9bc b88a 05bd 52ff 6a3c 1427 443b
000000b0: c0b3 b63b 9804 1a3d 9203 41bc 627e 643d
000000c0: 2ee6 ccbc 2212 213c 7bbd 113d 1ec1 6e3d
000000d0: 8134 1c3c c261 cf3b 13dc 9ebd 3d47 e3bd
000000e0: a4d2 88bc 6f18 153d 26ab f6bc d2ce 21bd
000000f0: 2a3d bfbb 4496 32bd 7faf c53c 8b94 253c
00000100: df36 01be cfc9 29bd 03da b3bd 7c52 e0bd
00000110: 6447 b1bd 696e 793b 5dcd 50bd 889d 02be
00000120: 8a9a 2abe 70b6 debd 4513 89bd 9d37 79bd
00000130: 60f7 b13d 1673 3b3c b8b1 fcbc 3561 833c
00000140: a545 9fbc 9625 7d3c 002c 973c 762e 123e
00000150: 4c95 0dbb c74f ec3c ec1b 0a3e 6562 913c
00000160: f615 2dbe 94c4 44bd f74c 63bd 2b7a 71bd
00000170: f632 96bd 4ff5 56bd 3a6f 1bbd 31a2 8dbd
00000180: 3815 6bbd c850 b23d d88e 5b3d da5e d33d
00000190: f772 9d3d f49c 513d 3e3b 533d 8cc3 b4bd
000001a0: c291 d63c fed8 123d ff43 6dbd f21d f2bd
000001b0: 24e6 053d 4e28 823c 8b86 1dbc a682 823c
000001c0: bdbb e13b af35 593c a087 ffbd ebdb 84bd
000001d0: e0ca 11bd ccc9 12bc 79a6 a2bd ac79 37be
000001e0: fcec bf3b 0585 973d 40e5 89bd 4a80 c8bc
000001f0: 2a98 743c 134c cd3d b197 1ebc 167e 05bd
00000200: 9732 9cbd 0489 c83c 70b8 cd3c 199a eabc
00000210: 673c ddbd a24c 6abd bd09 883a d55f f2bc
00000220: cac4 07bc db54 3e3c c73c f73b dc39 5ebd
00000230: feca a53b 2565 9abd 94de 50bd 96f7 083d
00000240: 1eb3 023d d0c9 a23d eacf 44bd 62a4 023d
00000250: 4a6f 363d d60d 9c3d 4acc c7bd c769 26bd
00000260: c301 e73c f3d6 30bd c65c 30bd bac5 a8bc
00000270: e0a8 72bd 9059 3b3d 664c 933c cb4b a03b
00000280: 8f47 08bd 3618 253d ed36 3a3d 1fe9 3c3d
00000290: bbbc 5b3d 0dd6 943d fded 9e3c d3f1 80bd
000002a0: 18f8 ad3c cdad 923d 6765 073d 4966 a03b
000002b0: 0af2 e93c 9722 df3d 8ff2 823d 59e5 c9bd
000002c0: 061c 20bd 4d3b 293b 5a7b e53d b29e a2bd
000002d0: 903d c93d 4ab2 053e e3db ca3c fee5 9cbd
000002e0: 6515 f73a 535a 3b3c a61c aabb c4ab 813d
000002f0: b281 79bd 3ac8 493d 76a9 f93c 5404 f03d
00000300: 5fbc 03bd af51 033d 340a e63d acc7 453e
00000310: 4b0c 8a3d 1b67 623d ce10 1dbd 8a11 b33d
00000320: 122d f43c 98c8 9fbb dacf 24bd 4d14 58bd
00000330: 9bcb 8cbd 7d62 85bd b7aa e13c 87e0 adbc
00000340: 18de d13c 977d bcbc 8a8c 03bc 9219 8e3b
00000350: d788 a5bd ec14 8abb b0a5 85bb 0af7 61bb
00000360: a2dd 05bd c632 903d 588c 633d 6b82 243c
00000370: 910a 42bd 1c90 06bd 1028 553c b643 4cbc
00000380: 65c9 cbbd 29b2 0bbd 009d d7bd bf15 eabd
00000390: 9bf4 d8bc 72f8 513d 31f3 1d3d eac6 283d
000003a0: 1fe9 ad3d f51b 083c 1c88 2f3e 37cf be3d
000003b0: a50e 7b3d 3c25 de3d 7a38 b93d 2d60 c1bc
000003c0: c023 12be 7a81 b3bd ca7b b4bd 4691 0b3e
000003d0: 57f6 4dbc f51a 563c 7405 013e a8e3 4b3e
000003e0: 5227 373d f6a5 d93d d60d 9b3d 4bd1 f5bd
000003f0: 2d24 ec3d ddf1 dc3c 47ea ee3c 81f6 63bd
0.09216696 0.0633206 -0.04196548 -0.04923549 0.02867257 -0.015195617 0.0053350287 -0.050982654
-0.036472056 0.055421412 -0.03313334 -0.04181945 -0.005492512 0.00645368 -0.028325122 0.013363998
-0.064112775 -0.045194358 0.08444962 0.034017947 -0.1205624 0.008123237 -0.04538842 -0.035274535
-0.08817187 0.07920344 0.04318887 0.013907112 -0.019604968 0.00986103 0.0062520285 -0.04457563
-0.09128397 0.11672048 0.0680373 0.09997976 0.040933255 -0.08783584 0.04003736 -0.012248638
-0.026538212 -0.032602996 0.0143431 0.002993052 0.005575627 0.037602037 -0.011780636 0.05578459
-0.025012102 0.009830983 0.035581093 0.05828964 0.009534002 0.0063287923 -0.077568196 -0.11097572
-0.016702004 0.036400255 -0.030110907 -0.03950388 -0.0058361487 -0.043600336 0.024131535 0.010106216
-0.12618588 -0.041452225 -0.08781817 -0.10953233 -0.08656195 0.0038060194 -0.0509771 -0.12755406
-0.16660514 -0.10874641 -0.066931285 -0.060844053 0.08689761 0.011441013 -0.030846462 0.016037563
-0.019442389 0.015450856 0.018453598 0.14275536 -0.002160388 0.028846635 0.13487214 0.017747113
-0.16902909 -0.048039034 -0.05549332 -0.0589544 -0.07333939 -0.05248004 -0.03794787 -0.06915701
-0.057393283 0.08706814 0.053603023 0.10320826 0.076879434 0.051175073 0.05157017 -0.0882636
0.02619255 0.03585147 -0.057926174 -0.11822118 0.032690182 0.01588836 -0.009614597 0.015931439
0.006888835 0.013257428 -0.1247704 -0.064872585 -0.035593867 -0.008959245 -0.079419084 -0.17917508
0.005857108 0.07398418 -0.06733179 -0.024475235 0.014928857 0.10024276 -0.009679721 -0.032590948
-0.07626837 0.024479397 0.02511236 -0.028637933 -0.108025365 -0.05720199 0.0010378879 -0.029586712
-0.008286664 0.011616911 0.007545087 -0.054254398 0.005059599 -0.07538823 -0.050993517 0.03343924
0.0319091 0.07948649 -0.048049845 0.03189505 0.044539727 0.076198265 -0.09755762 -0.04062822
0.028199082 -0.04317374 -0.043057226 -0.020602096 -0.059243083 0.04573971 0.017980766 0.0048918477
-0.03327137 0.040306292 0.045462538 0.04612076 0.053646784 0.072673894 0.019400591 -0.06296124
0.021236464 0.07162056 0.03305569 0.004895006 0.028557796 0.10895269 0.06393921 -0.09858198
-0.039089225 0.00258227 0.11205168 -0.07940425 0.09826195 0.13056293 0.024763053 -0.07661055
0.001885098 0.011435109 -0.0051914034 0.0633159 -0.060914703 0.049263217 0.030476313 0.117195755
-0.032162067 0.03206032 0.11232415 0.1931445 0.06740626 0.05527411 -0.038346104 0.0874358
0.029806647 -0.0048762076 -0.040237285 -0.052753735 -0.06874772 -0.06512926 0.027547223 -0.021225227
0.025618598 -0.023009105 -0.008029113 0.0043365443 -0.08082741 -0.00421392 -0.0040785894 -0.0034479522
-0.03268207 0.07040934 0.055553764 0.01004086 -0.04737336 -0.032852277 0.01301004 -0.012467315
-0.09950522 -0.034105454 -0.10527992 -0.11429929 -0.026483824 0.051262327 0.038562004 0.041205324
0.0849173 0.008307447 0.17141765 0.09316867 0.061293263 0.10846946 0.09043975 -0.02360543
-0.1427145 -0.0876493 -0.088126734 0.13629636 -0.012570939 0.0130679505 0.12599736 0.19911063
0.044715233 0.10627358 0.07570998 -0.1200281 0.115303375 0.026970798 0.029164447 -0.055655006

linear.0.bias f4 [32]
00000000: ceb4 9bbc 9542 123d 2c6c b2bc 1477 9a3c
00000010: 9c46 a43c 36fa 2f3b 826f fd3a b86e 9a3d
00000020: f2e6 333c 4d44 fc3c 6755 11bd 808c 9d3d
00000030: a989 683d cc44 a13c 05b7 5f3d 3754 433d
00000040: b7b9 253d 0612 493d aafa a13b 58ab 923d
00000050: dec3 003d 4a44 f6bc e228 9d3d 87d2 773d
00000060: e4f6 0b3d 0a30 503d 3c2a 303d 8241 50bd
00000070: 386b c03d 2a5b 8a3c b527 bc3c 203d 26bd
-0.019007113 0.03570803 -0.021780096 0.018855609 0.0200532 0.0026852018 0.00193356 0.07540649
0.010980355 0.030794287 -0.035481837 0.07692814 0.056771908 0.019686125 0.0546179 0.047687735
0.040460315 0.049089454 0.0049432116 0.071615875 0.031436794 -0.03006186 0.076738134 0.06050351
0.034171 0.050827064 0.043009028 -0.050843723 0.0939545 0.016889174 0.022968153 -0.040585637

linear.2.weight f4 [10, 32]
00000000: 3da2 b6be 60d1 fabd 3c4c 0abf 6139 bf3b
00000010: a708 77be 4708 873e aed3 b33e 6967 7b3e
00000020: 7737 c6be eaab c13e 327c d43c df58 dabe
00000030: 48d1 afbe 752e 063f 64be 4bbe 070e 323e
00000040: c585 fd3e 1547 acbe e054 24bd 37fc bd3e
00000050: 2d37 58bd cf66 023e 587a f13e 739e a53e
00000060: 8514 ea3e 2c79 ddbe 4105 813e 0b95 9ebe
00000070: c1db 06bf 6c64 6ebe ae8e 6bbe a68b 843b
00000080: 0b1f e03e 2b5d 193f 0e1f 4e3e c8dd acbd
00000090: adbc 293e 1a76 bf3e e43f 143d 47ca dd3e
000000a0: 511e c3be 4218 153e c7ba 37bf d402 763e
000000b0: 1d07 25bd 7426 a63c 9769 28bf 2499 6d3e
000000c0: 0eb0 7f3e b2ed 823c 7460 e63b c7c9 12bf
000000d0: 655b aebd e2c7 a3bd ccd7 0fbf 32a5 58be
000000e0: a723 00bf afe8 fabd a52d 8a3e cff3 7dbe
000000f0: 6bc5 a23e ecd4 e53e 2f62 193f 8aff 96bd
00000100: 81e3 6cbe aa73 acbe 8025 d73e eea2 43bc
00000110: 616a b53e 52b4 a23e 0ba6 703e a92b 2ebf
00000120: 45f3 5dbd f9d7 b93e c011 c9bb feb2 e93d
00000130: 5d95 293f c6c0 963e b8c5 8bbe d375 003e
00000140: 16d6 26bf 0470 f0bd 01c2 993e 014c 35bd
00000150: 18c9 e73d 55a7 933b 9f74 f03e aa53 a4be
00000160: a283 c63e eaff b33d c603 f33d eed1 23bf
00000170: ca87 19bf 9701 b43e 7b28 133e e670 e0be
00000180: 068d eebe 210c d13e 3f15 d03e 335c 0b3e
00000190: 4ea7 dcbe ebec 653e bd95 683c 61ac 42bf
000001a0: 16b1 ccbe d04f c23e d0a9 003e 9ef2 d03e
000001b0: 175b 2cbf 77fa 3d3e b800 30bf f47e bdbe
000001c0: dcf4 79be 56d0 273e 3610 8ebe 3e69 093f
000001d0: 8282 303d d236 90bc da8a 07bf 7f32 01bf
000001e0: 1347 d83e 1bdf fc3e 9cb1 9abe c0da ed3e
000001f0: c830 583e a06c c13e 8ba1 b4be a63d 68be
00000200: c821 a63e de3c 2bbf b632 d23e 1eff 933e
00000210: f244 453e 89cb 25bf 9045 713e 47d9 243e
00000220: d02d 2f3e acaa 9fbe cc3f fe3d 8670 78bc
00000230: b47c 75be fdbe b53d 658c 403f b2a9 b43e
00000240: f628 a83e cd01 bb3e e8ef a5bc d947 34bf
00000250: 9f93 c73d ad98 47bd b865 b1be 499e f53e
00000260: 8f58 24bf 5a46 44be 4ea2 74be 5e9a f73e
00000270: 50d8 953e 6289 edbe 8ee4 d63e 401f a5be
00000280: 4d4a 093f 42d7 183f 759a 6fbe 5a8f 6b3e
00000290: 1461 d33e fd0d 32bd c173 5fbe a543 8ebc
000002a0: 52d6 c23e 6247 f0be 6fdc c93f 7bb7 b2bd
000002b0: e867 833e baaf eebd 35a1 0e3e 967f 86be
000002c0: 0678 903e 1f9b dcbd 4ceb d53b a6c4 0e3f
000002d0: 9006 74bd f846 dabd 447b 893e 6669 723e
000002e0: 3e72 033e 2d67 02bf 95b5 553d ed39 fb3e
000002f0: 268a 693e 3390 023f 29df 26bd 07a1 3e3e
00000300: 1fd1 b33e 1581 e63e fe96 9e3e d476 99bd
00000310: 2de3 7b3e aac9 30bf 312c bbbe 47ca a03e
00000320: dcd9 1e3e cbd0 8a3d e0ea 6a3c ada6 263e
00000330: 1e91 bbbe 3dd1 b03e 71a5 0f3f 9cc4 593e
00000340: bfcb c83e cb6e aa3d a0f9 f1bd 2061 f5be
00000350: c3cf afbd f99e c53d 8260 993e 1bf2 28bf
00000360: 17bc b13e 4c64 31bf 4ee8 d33e 7628 31bf
00000370: 042c 24bf 3e90 0abf 5017 eabe f87c 0f3f
00000380: e957 a9be 25dc 8fbe e456 f9be 55df 7cbd
00000390: 3bee f7bd 2c21 043e 0e2e 34be bb43 3f3d
000003a0: 667f 353f 1b36 603d 1d24 26bf 8e55 91be
000003b0: 7ce9 d23e d673 543b a202 f8be 6abf cfbe
000003c0: 3830 ee3e 19d0 88be 200b 87bd a341 1cbf
000003d0: a93e 00bb 67bb 3bbc 8575 493e ac16 e73e
000003e0: f511 40bf 4efc 053f 8b0a 74be 6369 ea3e
000003f0: 5f3d 843e 5464 053f 2cc7 9a3e b328 c93d
-0.35670653 -0.12246966 -0.54022574 0.0058356975 -0.24124394 0.26373503 0.35122436 0.24551167
-0.3871419 0.37826473 0.025938127 -0.42645928 -0.34339356 0.5241464 -0.19896847 0.17388164
0.4951612 -0.3364798 -0.040120006 0.37106487 -0.052786995 0.12734531 0.47163653 0.3234745
0.4571878 -0.4325651 0.2519932 -0.30973086 -0.5267907 -0.23280495 -0.23003647 0.0040449677
0.43773684 0.5990779 0.20129034 -0.08440739 0.1657588 0.37394792 0.036193743 0.43318388
-0.38109067 0.14560035 -0.71769375 0.24024516 -0.040289987 0.020282008 -0.6578612 0.2320295
0.24969503 0.015982483 0.007030541 -0.5733914 -0.08513526 -0.07997109 -0.56188655 -0.21156767
-0.500544 -0.12251412 0.2698795 -0.24800037 0.31791243 0.4488901 0.5991544 -0.07372959
-0.23133661 -0.33681995 0.42020798 -0.011940701 0.35432723 0.31778198 0.2350084 -0.6803537
-0.054187078 0.36297587 -0.006136149 0.11411093 0.66243535 0.2944395 -0.27299285 0.12544946
-0.6517042 -0.11740115 0.30030826 -0.044261936 0.113176525 0.0045060315 0.46963975 -0.3209508
0.38772303 0.08789046 0.11865954 -0.639922 -0.5997282 0.35157463 0.14370911 -0.43836135
-0.46591967 0.40829566 0.4064121 0.1360939 -0.43096393 0.22453658 0.014195857 -0.7604428
-0.39978856 0.37951517 0.12564778 0.40810102 -0.6732649 0.18552576 -0.68751097 -0.3701092
-0.24409813 0.16388068 -0.27746743 0.5367621 0.043093212 -0.017604265 -0.52946246 -0.50467676
0.42241725 0.49388966 -0.3021363 0.46455956 0.21112359 0.37778187 -0.35279498 -0.22679767
0.32447648 -0.6688975 0.41054314 0.28905576 0.19264582 -0.64763695 0.23561692 0.1609851
0.1710732 -0.311849 0.12414512 -0.015163546 -0.23973352 0.08874319 0.75214225 0.35285717
0.3284375 0.3652481 -0.020255998 -0.7042213 0.09744953 -0.048729587 -0.34647918 0.47972324
-0.6419763 -0.19167462 -0.2389004 0.4835996 0.29266596 -0.46393877 0.41971248 -0.32250404
0.53629 0.5970346 -0.23398764 0.23003903 0.41285002 -0.04347037 -0.218215 -0.01736624
0.38054138 -0.4692946 1.5770396 -0.08726402 0.25665212 -0.11654611 0.13928683 -0.26269215
0.2821657 -0.107717745 0.0065282937 0.5576881 -0.05957657 -0.106580675 0.26851857 0.23673019
0.12836549 -0.50938684 0.052175123 0.4906763 0.22806606 0.5100128 -0.040740166 0.18616115
0.35120484 0.45020357 0.30974573 -0.07493368 0.2459838 -0.69057715 -0.36557153 0.31404325
0.15512794 0.06778105 0.014338225 0.1627452 -0.36634153 0.34534636 0.5611182 0.21266407
0.39217946 0.08321913 -0.1181519 -0.47925663 -0.08584549 0.09649462 0.29956442 -0.65994424
0.34713814 -0.69293666 0.41388172 -0.69202363 -0.6412966 -0.54126346 -0.4572091 0.5605006
-0.33074883 -0.28097644 -0.48699105 -0.061736424 -0.12105986 0.12903279 -0.17595693 0.046695452
0.7089752 0.0547391 -0.64898854 -0.28385586 0.4119376 0.0032417676 -0.4843951 -0.40575725
0.46521163 -0.26721266 -0.06593919 -0.61037654 -0.0019568598 -0.011458254 0.19673736 0.45134485
-0.750274 0.5233811 -0.23832147 0.4578353 0.25828072 0.52106214 0.3023008 0.09822216

linear.2.bias f4 [10]
00000000: 49ea dbbd d95d 513c 1770 393d ae93 cbbd
00000010: 9a14 163e e875 43be 68d3 2c3d f956 08be
00000020: 204f fe3d fd96 983c
-0.10738046 0.012778723 0.045272913 -0.09940277 0.14656296 -0.19087946 0.0421938 -0.13314427
0.12417436 0.018626684
